…
      "execution_count": null,
      "id": "07cbef07",
      "metadata": {
        "id": "07cbef07",
        "outputId": "ad3b1d78-a64d-4068-d04a-5aad63b74c91"
      },
      "outputs": [
        {
          "name": "stdout",
          "output_type": "stream",
          "text": [
            "Model: \"sequential_5\"\n",
            "_________________________________________________________________\n",
            " Layer (type)                Output Shape              Param #   \n",
            "=================================================================\n",
            " Ist_conv_layer (Conv2D)     (None, 198, 198, 32)      896       \n",
            "                                                                 \n",
            " activation_18 (Activation)  (None, 198, 198, 32)      0         \n",
            "                                                                 \n",
            " max_pooling2d_15 (MaxPoolin  (None, 99, 99, 32)       0         \n",
            " g2D)                                                            \n",
            "                                                                 \n",
            " IInd_con_layer (Conv2D)     (None, 97, 97, 32)        9248      \n",
            "                                                                 \n",
            " max_pooling2d_16 (MaxPoolin  (None, 48, 48, 32)       0         \n",
            " g2D)                                                            \n",
            "                                                                 \n",
            " IIIrd_conv_layer (Conv2D)   (None, 46, 46, 64)        18496     \n",
            "                                                                 \n",
            " activation_19 (Activation)  (None, 46, 46, 64)        0         \n",
            "                                                                 \n",
            " max_pooling2d_17 (MaxPoolin  (None, 23, 23, 64)       0         \n",
            " g2D)                                                            \n",
            "                                                                 \n",
            " FlattenedLayer (Flatten)    (None, 33856)             0         \n",
            "                                                                 \n",
            "=================================================================\n",
            "Total params: 28,640\n",
            "Trainable params: 28,640\n",
            "Non-trainable params: 0\n",
            "_________________________________________________________________\n"
          ]
        }
…
      "execution_count": null,
      "id": "ac0a93e3",
      "metadata": {
        "id": "ac0a93e3",
        "outputId": "f070f1ed-5950-44cd-b24e-dee10d501a25"
      },
      "outputs": [
        {
          "name": "stdout",
          "output_type": "stream",
          "text": [
            "Model: \"sequential_5\"\n",
            "_________________________________________________________________\n",
            " Layer (type)                Output Shape              Param #   \n",
            "=================================================================\n",
            " Ist_conv_layer (Conv2D)     (None, 198, 198, 32)      896       \n",
            "                                                                 \n",
            " activation_18 (Activation)  (None, 198, 198, 32)      0         \n",
            "                                                                 \n",
            " max_pooling2d_15 (MaxPoolin  (None, 99, 99, 32)       0         \n",
            " g2D)                                                            \n",
            "                                                                 \n",
            " IInd_con_layer (Conv2D)     (None, 97, 97, 32)        9248      \n",
            "                                                                 \n",
            " max_pooling2d_16 (MaxPoolin  (None, 48, 48, 32)       0         \n",
            " g2D)                                                            \n",
            "                                                                 \n",
            " IIIrd_conv_layer (Conv2D)   (None, 46, 46, 64)        18496     \n",
            "                                                                 \n",
            " activation_19 (Activation)  (None, 46, 46, 64)        0         \n",
            "                                                                 \n",
            " max_pooling2d_17 (MaxPoolin  (None, 23, 23, 64)       0         \n",
            " g2D)                                                            \n",
            "                                                                 \n",
            " FlattenedLayer (Flatten)    (None, 33856)             0         \n",
            "                                                                 \n",
            " dense_8 (Dense)             (None, 64)                2166848   \n",
            "                                                                 \n",
            " activation_20 (Activation)  (None, 64)                0         \n",
            "                                                                 \n",
            " dropout_3 (Dropout)         (None, 64)                0         \n",
            "                                                                 \n",
            " dense_9 (Dense)             (None, 1)                 65        \n",
            "                                                                 \n",
            " activation_21 (Activation)  (None, 1)                 0         \n",
            "                                                                 \n",
            "=================================================================\n",
            "Total params: 2,195,553\n",
            "Trainable params: 2,195,553\n",
            "Non-trainable params: 0\n",
            "_________________________________________________________________\n"
          ]
…
